…
    "Notice that the output layer has four neurons with a `sigmoid` activation, so our model produces at its outputs four real numbers (x,y,width, and height)."
   ]
  },
  {
   "cell_type": "code",
   "execution_count": null,
   "metadata": {
    "colab": {
     "base_uri": "https://localhost:8080/"
    },
    "id": "s7dNybnGphHF",
    "outputId": "8849104a-98ab-41f7-c1d3-7d4fd03d0b97"
   },
   "outputs": [
    {
     "name": "stdout",
     "output_type": "stream",
     "text": [
      "----------------------------------------------------------------\n",
      "        Layer (type)               Output Shape         Param #\n",
      "================================================================\n",
      "            Conv2d-1            [-1, 8, 32, 32]             208\n",
      "              ReLU-2            [-1, 8, 32, 32]               0\n",
      "            Conv2d-3           [-1, 16, 16, 16]           1,168\n",
      "              ReLU-4           [-1, 16, 16, 16]               0\n",
      "            Conv2d-5             [-1, 32, 8, 8]           4,640\n",
      "              ReLU-6             [-1, 32, 8, 8]               0\n",
      "            Conv2d-7             [-1, 32, 4, 4]           9,248\n",
      "              ReLU-8             [-1, 32, 4, 4]               0\n",
      " AdaptiveAvgPool2d-9             [-1, 32, 1, 1]               0\n",
      "          Flatten-10                   [-1, 32]               0\n",
      "           Linear-11                    [-1, 4]             132\n",
      "          Sigmoid-12                    [-1, 4]               0\n",
      "           Linear-13                   [-1, 10]             330\n",
      "================================================================\n",
      "Total params: 15,726\n",
      "Trainable params: 15,726\n",
      "Non-trainable params: 0\n",
      "----------------------------------------------------------------\n",
      "Input size (MB): 0.02\n",
      "Forward/backward pass size (MB): 0.23\n",
      "Params size (MB): 0.06\n",
      "Estimated Total Size (MB): 0.30\n",
…
